models/DQN_simple/Q_gen_P_a_for_x.pth (torch_old, 112073 bytes, 6 tensors)

0.weight f4 [150, 80]
000000 be 2f 35 3e 8f 1e 09 3e 6c 77 ef 3e 61 ed a3 be
       0.17693993 0.13390563 0.467708 -0.32017043
000010 68 77 2a 3f 55 e4 bd 3c dc 79 11 3e fd 08 9b 3e
       0.6658845 0.023180166 0.14206642 0.30280295
000020 41 0b 3b be a5 23 b2 3e 13 37 af 3e ba c2 d1 be
       -0.18266012 0.3479282 0.34221706 -0.40968877
000030 af 26 6a 3e 5f eb 91 3e c5 c2 0f 3f 65 d2 1a be
       0.22866319 0.28499886 0.5615657 -0.15119322
000040 69 c4 28 bd bf f4 87 3e 90 7d e1 bd ab 3a a5 3e
       -0.041202936 0.26553914 -0.11010277 0.32271323
000050 0a 1a bf bd ce a1 f0 3d bf 58 61 3f 97 ca 19 be
       -0.093311384 0.11749612 0.8802604 -0.15018688
000060 2e 90 f5 3c 97 07 b9 be f7 2f 64 3e c1 15 b8 3e
       0.029975977 -0.36138603 0.22283922 0.35954097
000070 78 62 09 3c bc 33 ce 3e 5d 36 28 3e 0f 56 05 3f
       0.008385293 0.40273845 0.16426988 0.5208444
000080 0e c8 c7 3e b8 bc 99 c0 df 44 2c 3b 13 73 16 3d
       0.39019817 -4.804287 0.0026286168 0.036730837
000090 3c 89 0a 3f 75 19 ad 3e f3 21 a7 3d 7b b0 08 3f
       0.54115653 0.33808485 0.08160772 0.5339429
0000a0 0b 80 92 3e 1e eb 77 bb 23 d5 06 bf 08 9f eb be
       0.28613314 -0.003782935 -0.5266897 -0.4601977
0000b0 bf a9 17 bf ea 1b d0 be 0c ee 51 3e 0d 6b 57 3e
       -0.59243387 -0.40646297 0.20500964 0.2103693
0000c0 c7 fc 34 3f 28 5d b5 3e b3 c8 16 3e 9a a0 35 3e
       0.7069821 0.35422635 0.14724998 0.17737046
0000d0 11 7f e2 3e e8 60 37 3e 59 c0 ef bd 69 e0 17 bc
       0.4423757 0.1790806 -0.11706609 -0.009269812
0000e0 a3 5a b9 3c 2d 50 5e 3e 82 bb e4 3e 9e ed f1 3e
       0.022626227 0.21710272 0.44674307 0.472516
0000f0 dc 1d bc 3e 02 54 ba bc b2 0c 80 be d2 cd b3 be
       0.3674153 -0.022745136 -0.25009686 -0.35117966
000100 ce d5 5e 3f da 0a 91 bf 89 de 02 c0 89 74 81 be
       0.8704499 -1.1331437 -2.0448325 -0.25284222
000110 96 12 b2 be a3 bc 0d bf 75 8c 62 3e 9d c0 9e 3e
       -0.34779805 -0.5536596 0.22123893 0.31006327
000120 6e 12 a8 3e e7 90 fc bc b6 e4 6e 3e 08 8e 94 3d
       0.3282656 -0.030830814 0.23329434 0.07253653
000130 2b 98 6d bf 50 d6 c7 3e 2e 43 f5 3e 1b 70 fd 3e
       -0.92810315 0.39030695 0.47902817 0.49499592
000140 f5 58 de 3e bc c1 23 3e 72 28 9f 3e 7d bd ad be
       0.43427244 0.15991873 0.31085545 -0.3393363
000150 74 eb 10 c0 04 01 38 bf 34 41 15 c0 27 63 f1 be
       -2.264371 -0.7187655 -2.3321047 -0.4714596
000160 c6 7d 4b bf ef bf 00 bd 9e b0 9c be 12 23 29 3f
       -0.7948879 -0.031433042 -0.30603498 0.6606914
000170 1c b9 06 bd 5e 6e cf bf 69 0f 8f bf 5c 4d a7 c0
       -0.032891378 -1.6205556 -1.1176578 -5.2281933
000180 cc 4e ee bf 0e 0a bc 3e f8 c2 c7 bd 94 27 47 bf
       -1.8617797 0.3672642 -0.09753984 -0.77794766
000190 3e 2d 16 3c a8 29 cc be 69 d9 22 c0 d1 09 c2 3e
       0.00916606 -0.3987553 -2.5445197 0.37898114
0001a0 81 93 f0 be 68 8f 88 3e 65 79 38 c0 77 f8 dc bf
       -0.46987537 0.2667191 -2.8824093 -1.7263325
0001b0 47 a9 94 3e b9 05 d1 bd 63 0d ac 3e 73 bf 95 3e
       0.29035398 -0.1020617 0.33603963 0.29247627
0001c0 aa 2d ad 3e a0 02 b8 be 22 93 aa bf 73 fc a8 3c
       0.338239 -0.35939503 -1.3326151 0.02062819
0001d0 34 60 9a 3d 62 0a 12 3f a4 9e f4 3d 96 8a d3 bf
       0.075378805 0.5704709 0.11944321 -1.6526668
0001e0 9c 5b 55 c0 9a 2c 16 3f e0 74 ba bb ba d5 03 3f
       -3.3337164 0.58661807 -0.005690202 0.51497996
0001f0 ab 8e 30 c0 4a 21 68 bf 8a dd 7d bf 6c 91 d6 be
       -2.7587078 -0.90675795 -0.99166167 -0.41907823
000200 ca cf 84 bf 72 2d f8 bf fb 98 67 3e f6 98 86 3e
       -1.0375912 -1.9388869 0.22616951 0.26288575
000210 e1 eb fd be c4 7b ee 3c 00 cf 03 3e a4 18 0b 3d
       -0.49594024 0.02911175 0.12871933 0.033959046
000220 b0 0f f5 bf 25 28 9e be 7c 3e 7f be 01 c8 1e c0
       -1.9145412 -0.30890003 -0.2492618 -2.4809573
000230 80 6e 30 bf 56 f7 4f be 1a cf fe bf 48 9b 88 be
       -0.6891861 -0.20309195 -1.9906952 -0.2668097
000240 67 b3 8b bd 1e d8 cb be a0 39 0c bf d7 ca d2 bf
       -0.06821328 -0.39813322 -0.5477543 -1.6468152
000250 38 24 fe be e6 b5 09 c0 83 21 be bc e6 a0 6e be
       -0.49637008 -2.1517272 -0.023209339 -0.23303565
000260 10 52 0f 3f 8a 97 a8 be 82 b3 0f 3f ef 93 bf 3e
       0.5598459 -0.32928115 0.5613328 0.37417552
000270 f7 f3 ec 3e 35 b3 cc bf 1a 85 e7 bd f3 0d 87 bd
       0.4627988 -1.599219 -0.11304684 -0.065944575
000280 a3 6e 91 3e f4 c6 1d bf 92 d5 2f bf e7 71 30 3f
       0.28404722 -0.61631703 -0.6868526 0.689238
000290 56 a0 a1 be 81 d7 14 bf be 97 a9 be a9 2d 08 3e
       -0.3156764 -0.5814133 -0.33123583 0.13298668
0002a0 ac 70 e3 be 81 bd 18 bf 1e 89 2c bc 95 e9 d3 be
       -0.444219 -0.5966416 -0.010530738 -0.41389146
0002b0 c6 52 b2 be 11 ec 92 be a4 09 a8 be 1b 52 51 3c
       -0.34828776 -0.2869573 -0.32819855 0.012775923
0002c0 b1 8a ff bc 36 c9 c3 bf 40 7d 07 c0 9d 38 e2 bd
       -0.031194063 -1.529578 -2.1170197 -0.110459544
0002d0 35 0e 07 3e f6 b1 09 c0 f5 7d a9 3e f4 97 2b 3e
       0.13189013 -2.1514869 0.3310391 0.16757184
0002e0 bd f2 0d 3d 53 4b 32 3e 4a e2 53 be 63 09 cd 3c
       0.03465532 0.17411546 -0.20691791 0.02502889
0002f0 6e 46 b2 3e b8 b1 f8 be b2 a8 16 3f cb 96 d3 3e
       0.3481936 -0.4857309 0.5885116 0.41325983
000300 c6 e1 97 3e 74 e2 3c bd 00 3b 55 3e 64 6a 29 3d
       0.2966444 -0.0461144 0.20823288 0.041361228
000310 a0 fa 31 3e 5d 04 68 3e ec 57 dd 3e 5c b7 a7 3e
       0.17380762 0.22657914 0.43231142 0.3275708
000320 41 f5 d7 be ee ec 04 bf 77 c2 ef 3c 2b 6c 37 be
       -0.421793 -0.51924026 0.029267533 -0.17912357
000330 ae 47 22 be 6a a0 ef be cf e9 34 be 86 99 d2 3e
       -0.15847656 -0.46802074 -0.17667316 0.41132754
000340 8c 1a 93 3e ce 55 2f 3e fe 8b e8 be 6a 66 af 3e
       0.2873119 0.17122576 -0.45419306 0.34257823
000350 ae 5f 3c bf fb 42 72 be bd 31 bb 3e 72 dd 15 3d
       -0.73583496 -0.23658364 0.36561385 0.03658814
000360 0a 7a 73 3e 71 8f 18 3f 09 b7 01 be 26 3c 04 bf
       0.23777023 0.59593874 -0.12667479 -0.5165428
000370 24 e0 66 3e 20 f7 ee be dc 01 85 be 9a 96 07 3f
       0.2254644 -0.46672916 -0.2597798 0.52964175
000380 df 3e ab 3d 3a 46 15 3e 55 e4 6b bd 24 a0 34 3e
       0.08361601 0.1457757 -0.0575908 0.17639214
000390 b7 a2 c0 3e db 32 18 3f 6a c6 a9 be d4 50 d8 3e
       0.37624142 0.594526 -0.3315919 0.42249167
0003a0 4e e1 06 3f c7 81 b5 3e eb 45 12 be a9 a8 d0 3e
       0.5268754 0.35450575 -0.14284484 0.40753677
0003b0 5c dd 4c bf 33 99 41 bf 08 77 10 bd f3 77 42 bd
       -0.8002527 -0.7562439 -0.035269767 -0.047477674
0003c0 a6 25 1e 3e 73 37 38 bf c3 d5 77 3f 37 33 85 3d
       0.15444049 -0.7195961 0.9681055 0.06503909
0003d0 2c a0 ca 3e 83 27 53 3e 82 e4 cf 3e 73 d9 d6 3e
       0.39575326 0.20620541 0.40604025 0.41962776
0003e0 9b e9 47 3f 67 69 30 bf 51 ba 15 3e 5c 41 45 3d
       0.7809083 -0.6891083 0.14621855 0.048158035
0003f0 be d9 dc bd f9 db b0 be e7 5f 7b bf 4f 1e a3 3c
       -0.107837185 -0.34542826 -0.9819321 0.019911913

0.bias f4 [150]
000000 c2 07 35 bd c3 64 d6 be 84 e7 ac 3d e4 3e 70 be
       -0.04419685 -0.4187375 0.084425956 -0.23461491
000010 d4 de 36 bd 46 d0 2e bd 88 5f aa be e1 a0 ae be
       -0.0446461 -0.042679094 -0.3327601 -0.34107116
000020 6a b6 f8 bd 19 ed 15 3d d7 d0 41 be e3 97 74 be
       -0.12144168 0.036603067 -0.18927322 -0.23886065
000030 86 d6 d3 be b2 f0 d9 be 14 17 7f be f9 77 cc be
       -0.41374606 -0.42566448 -0.24911147 -0.39935282
000040 4a 48 0a be fe 0e 3b be 17 8a 28 bd 11 28 59 3d
       -0.13504139 -0.18267438 -0.041147318 0.053016726
000050 7d 06 35 be 0a 20 00 be db 96 75 be 94 20 a7 be
       -0.17678256 -0.12512222 -0.23983328 -0.32642043
000060 98 02 c1 bd d7 6e 92 be 61 ee 07 be f8 dc 5c be
       -0.09424323 -0.2860019 -0.13274528 -0.21568668
000070 72 01 d4 be 8e 67 cb be 10 0b d0 bd 77 73 81 bd
       -0.41407353 -0.39727443 -0.1015836 -0.06320851
000080 91 08 90 bd 6c 77 47 bd 71 93 85 be dd 4a 8f bc
       -0.07032884 -0.048697874 -0.2608905 -0.017491752
000090 47 06 34 be e3 c3 c4 3d d9 90 86 3d 8d 4a a7 be
       -0.1758052 0.09607675 0.06570596 -0.32674065
0000a0 46 fb fc bd 3d 59 71 be 34 a0 73 be 6b 39 89 be
       -0.12352614 -0.23569198 -0.23791581 -0.2680162
0000b0 d9 e2 47 be 7e fe 27 bc 99 c6 ac bd 22 e4 1a be
       -0.1952013 -0.010253547 -0.08436317 -0.15126088
0000c0 3b 9d 5d be c9 7f 07 be 8e e7 eb bd 7f ff d9 bd
       -0.2164201 -0.1323234 -0.11518775 -0.10644435
0000d0 ec 67 45 be d8 d1 af bd 24 dc 58 3d 66 2e 6d be
       -0.19277924 -0.085849464 0.052944317 -0.23162231
0000e0 1f 71 9c be cc ca 1f be 62 87 75 be 01 37 c1 be
       -0.30555055 -0.15604705 -0.23977426 -0.37737277
0000f0 c9 9b 2d 3e d4 09 9c bc 29 ef fa bd 6f ee 6c be
       0.16953959 -0.019047655 -0.122526474 -0.2313783
000100 93 f2 1e be 65 64 1c 3d 42 a2 35 be 51 fa 37 be
       -0.15522222 0.03818168 -0.17737678 -0.17966582
000110 36 8d 64 be f4 c7 76 be 08 d7 41 be ee 6b 4c be
       -0.22319493 -0.24099714 -0.18929684 -0.19963047
000120 cc c6 25 be 94 9f 16 be 89 a0 0e be ce a5 ec bd
       -0.16189116 -0.14709312 -0.13928427 -0.11555062
000130 3c ca 40 be 75 9f b2 be 1c dd 78 bd 05 d7 64 be
       -0.18827146 -0.3488728 -0.06075774 -0.22347648
000140 40 bb b8 3d 50 4a 16 be 0b 9f 0d be d7 02 e5 3a
       0.0902009 -0.14676785 -0.13830201 0.001747216
000150 46 61 54 be 84 1c 21 be a6 4a 7e be 46 66 82 be
       -0.20740232 -0.15733534 -0.24833164 -0.25468653
000160 e9 9f 04 bd e7 0b 84 3c a0 32 89 bd dd de 1e 3d
       -0.032379065 0.016118957 -0.06699109 0.038786758
000170 25 0a 6d be e4 14 ec bd ea 35 22 be d5 59 1e be
       -0.23148401 -0.11527422 -0.15840879 -0.15463956
000180 4e 49 06 be ec fe 14 be bf 01 83 be 25 1b 1f be
       -0.13113901 -0.1455037 -0.2558727 -0.15537699
000190 7c d4 2a be 3a 75 99 be e6 2b 19 be d9 3a e0 bc
       -0.16682619 -0.2997225 -0.14958152 -0.02737181
0001a0 c3 b7 7b be b1 46 84 ba 77 7f 46 bc 21 2a 11 3e
       -0.24581818 -0.0010091868 -0.012115351 0.14176227
0001b0 0c 2e 97 bd ed 34 99 be 0c b2 0b be df fc 8a be
       -0.073818296 -0.29923192 -0.13642138 -0.2714605
0001c0 f0 79 5c be ab 61 32 be 27 e3 f1 bd 8b 71 27 be
       -0.2153089 -0.1742007 -0.11810904 -0.16351907
0001d0 96 f6 28 be 04 b0 0f be 6f ea b9 be b9 54 a5 bd
       -0.16500315 -0.14031988 -0.3631167 -0.080728
0001e0 86 39 70 3c 65 87 7b be e7 68 5b be fc f3 3f be
       0.014662152 -0.24563368 -0.21426736 -0.18745416
0001f0 ed ae 4f be 29 59 8c 3d c5 e2 d0 bd 73 2e bf 3d
       -0.20281573 0.068529435 -0.10199503 0.09335031
000200 e6 29 09 be 4f 92 fd bd 39 e3 67 be 31 42 2c bd
       -0.13394889 -0.12381422 -0.22645272 -0.042055313
000210 08 76 6b bd 7f 24 15 be 09 fa 09 be 8a d3 3b be
       -0.05748561 -0.14564703 -0.13474287 -0.18342414
000220 7b a5 d5 3d da 54 31 be ec 56 0f be f7 ce ce be
       0.104319535 -0.17317525 -0.13998002 -0.40392277
000230 a8 e8 a3 bc 0d 87 99 bd 68 62 b7 be 6b 84 02 be
       -0.0200084 -0.07496462 -0.35817266 -0.12745826
000240 db e8 28 bc ed 6a 1d be 2b 1a 75 bd 02 f7 ed bd
       -0.010309423 -0.1537282 -0.05983941 -0.116193786
000250 dd 2e 06 be b5 cc b9 be
       -0.13103814 -0.36288992

2.weight f4 [100, 150]
000000 0a 9f 81 3b 89 eb 00 3f df 33 7f 3c fa 93 86 3e
       0.0039557265 0.503594 0.015576332 0.26284772
000010 96 64 96 be d3 61 88 bd 52 ff c2 3e 4d b8 14 3f
       -0.29373616 -0.066592835 0.3808542 0.5809372
000020 a8 1a 9d 3d 41 0b ac be 29 a1 59 bf 57 e5 d6 be
       0.076711 -0.33602336 -0.85011536 -0.41971847
000030 18 ea 63 bf 3c 3b 00 bf 52 7b 90 bf dd d8 c9 be
       -0.89029074 -0.50090384 -1.1287634 -0.39423266
000040 ef 87 60 3d 69 44 21 3e a9 8f 54 be aa a7 d1 bf
       0.054817136 0.15748753 -0.20757927 -1.6379292
000050 54 4c 13 bf 7d 71 34 3e 8f 1a 29 be 28 70 0f 3f
       -0.5753834 0.17621417 -0.16514038 0.5603051
000060 5e ac a3 be fa 84 20 bf 91 df 6f be 2e 6a 0a 3e
       -0.31967443 -0.62702906 -0.23425128 0.13517067
000070 c3 4f 8d bf 7c 80 a2 3f 1c 78 cd be 33 13 47 3e
       -1.1039966 1.269546 -0.401307 0.19440918
000080 0e 2b 76 be ce 4b 0d 3e 01 1f ed be 4c ea 9d 3d
       -0.24039862 0.13798448 -0.46312717 0.07710704
000090 b0 97 bd be 0d 4a df bd ac 5c 0d 3e bf 57 ae bd
       -0.3702979 -0.10902796 0.13804883 -0.0851283
0000a0 bf cc e4 3e 1a db c6 be 4f 52 a5 be 47 4a a6 be
       0.4468746 -0.38839036 -0.3228936 -0.32478544
0000b0 82 6b 4e 3d 52 f6 1c bf 60 93 41 be 71 42 a4 3e
       0.050395496 -0.61313355 -0.18903875 0.3208194
0000c0 57 d7 83 bd cb 3e 0c 3f 89 ee c2 3c b8 2c 07 be
       -0.06437557 0.54783314 0.023795383 -0.13200653
0000d0 4d 47 d5 3e 11 09 31 3f 59 75 8b be 66 bc a0 be
       0.4165596 0.6915446 -0.27237967 -0.31393737
0000e0 0e 33 bf be c6 5c 90 bf 78 bc e6 bc 83 5e 36 3e
       -0.3734364 -1.1278312 -0.02816604 0.17809491
0000f0 16 b5 b9 be 69 28 30 3d 9e d2 19 3e 07 a7 8d 3e
       -0.3627097 0.043007288 0.1502175 0.27666494
000100 f9 1b 34 bf f6 b4 75 3e ab b2 a1 bd af 89 af bf
       -0.7035518 0.23994812 -0.07895406 -1.3713893
000110 ee 24 55 3e ba 7d c7 3e 15 75 14 3f 25 9c b3 3e
       0.20814869 0.3896311 0.57991153 0.35080066
000120 2a f5 f5 be c0 d9 18 bf 2e ba 30 3e 38 5e 2e 3f
       -0.48038608 -0.5970726 0.17258522 0.68112516
000130 dd 0d 57 be 01 04 21 be 71 2f ae 3c 40 5c 8b 3e
       -0.21001382 -0.15724184 0.021262856 0.2721882
000140 c8 8b bd 3e 53 68 20 3e 2e 7d 6e 3d d8 87 7a be
       0.37020707 0.15664797 0.05822485 -0.24465883
000150 9e fc 3a bf 0f 3f bc be 64 5f 8b be f8 b9 6f bf
       -0.73041713 -0.3676686 -0.27221215 -0.9364314
000160 99 a8 15 3e ca e0 1c be 60 b4 18 bf 19 94 05 bf
       0.14615096 -0.15320125 -0.5965023 -0.52179104
000170 96 03 04 3e de 27 81 3e 8a 44 cd bd 85 d2 64 3e
       0.12891993 0.2522573 -0.100228384 0.22345932
000180 44 4d f5 bf d0 10 db be 9f a5 1d 3f 45 10 f9 3d
       -1.9164205 -0.42786264 0.6158084 0.12161306
000190 ca c3 40 3f 68 e7 c3 3e c3 c3 98 3d 29 a2 c8 bd
       0.7529875 0.38262486 0.074592136 -0.097965546
0001a0 4d 77 ee 3d 4e 53 2b 3f ab ed dc 3d 09 16 2a bf
       0.116438486 0.6692399 0.10787519 -0.6643987
0001b0 2a 49 e6 3d b3 53 bd bd 38 b2 c8 3e 94 82 4e bf
       0.11244424 -0.0924448 0.3919847 -0.80667996
0001c0 03 58 9b be d6 2f 40 3e e8 c9 cb ba 8c 27 5f be
       -0.30340585 0.18768248 -0.0015547844 -0.2179243
0001d0 53 62 24 be 77 83 ec 3e e2 65 10 3f b2 d2 17 3e
       -0.16053133 0.4619405 0.5640546 0.14826468
0001e0 f8 3e 62 be 56 1e f3 be db 9c f8 bd 5e 8c 23 3e
       -0.22094333 -0.47484082 -0.12139293 0.15971515
0001f0 da fd 99 bf 8e f5 51 bf 65 90 30 3e 3c 38 d9 be
       -1.2030594 -0.8201531 0.17242582 -0.42425716
000200 25 99 04 bf ae 50 cd be 0a 3e f9 be f8 9c e0 3d
       -0.5179618 -0.40100616 -0.48680145 0.109674394
000210 e3 76 b2 3e d0 f6 14 be 58 62 a3 3e 19 3b 28 3f
       0.34856328 -0.14547276 0.31910968 0.65715176
000220 19 bd 1c be 6c a0 e5 be dc 05 05 bf 61 0d 07 be
       -0.1530651 -0.44848955 -0.51962066 -0.13188697
000230 e2 94 fc 3e 8d 4e 34 be d2 dd 07 be b5 a0 eb be
       0.4933234 -0.1760809 -0.13268211 -0.46021047
000240 78 d4 88 be 22 48 63 bf a9 87 82 be 82 14 74 be
       -0.267246 -0.8878194 -0.25494125 -0.23835948
000250 b5 48 1b bf a4 b8 64 bf 99 7a 17 bf 76 dd 22 bf
       -0.6065782 -0.8934424 -0.59171444 -0.6361917
000260 ea 3e 9e 3e 99 90 a0 3e 10 d2 9b 3e 80 5d c2 bd
       0.30907375 0.3136032 0.30433702 -0.0949049
000270 26 89 dd bd 02 79 ed 3d b2 e6 42 bf 6b c0 44 3e
       -0.108171746 0.11595346 -0.76133263 0.19214027
000280 85 35 76 3e 61 70 18 bd f2 f5 ec bc 69 e2 06 bf
       0.24043854 -0.037216548 -0.02892587 -0.52689224
000290 92 b2 b8 3e 3b ef 29 bf 4b 05 95 be 1f 03 93 bc
       0.36073738 -0.6638066 -0.291056 -0.017945824
0002a0 48 ca f2 3d 2e 82 d0 3d ad 4f 13 bf 48 84 1d be
       0.11854988 0.1018108 -0.5754345 -0.15382493
0002b0 33 81 9a 3e 5c 45 8e bf a0 1d 64 bf 77 00 20 be
       0.30176696 -1.1114917 -0.89107704 -0.15625177
0002c0 4a a3 73 3f 5a ac 3f bf 74 65 56 be ba 96 09 be
       0.95171034 -0.7487236 -0.20937139 -0.13436404
0002d0 09 54 50 be 6a a0 9e 3e fc 28 9b 3e 62 9c 8c be
       -0.20344557 0.3098176 0.30304706 -0.2746306
0002e0 e2 0d 14 bf 46 06 83 be 18 d4 3c 3e 51 09 01 bf
       -0.57833683 -0.25590724 0.18440282 -0.5040484
0002f0 44 94 ea bc 63 b0 f8 bc cb e4 dc be d9 bd ab be
       -0.028635152 -0.030357545 -0.43143305 -0.3354328
000300 9e 87 7a be 60 26 a7 3e 82 af ef bd 48 d5 81 be
       -0.24465796 0.32646465 -0.11703397 -0.25358033
000310 14 b1 41 3e 3a cd 3b 3e 07 8b 06 3d 93 bd 33 3e
       0.18915206 0.18340006 0.03284743 0.17552786
000320 2a 1a db 3e 72 d4 d2 3d e7 ca 32 3d b5 17 3b bf
       0.427934 0.10294427 0.043650534 -0.7308305
000330 ad b5 24 3e 09 11 4d 3e ec 24 8f 3d 93 0b 76 3e
       0.16084929 0.2002603 0.06989464 0.24027853
000340 3f aa da 3c b4 a3 a7 be 85 8c d1 3d 6a c4 30 3e
       0.026692508 -0.32742083 0.1023188 0.17262426
000350 94 43 0a be 19 46 2f be 18 52 a7 bf 94 0e 41 3e
       -0.13502342 -0.17116584 -1.3071928 0.18853217
000360 d9 c4 00 3e c6 ef 17 3e c9 45 63 bd b9 39 1a 3f
       0.12575091 0.1483756 -0.055486474 0.6024433
000370 00 23 3d be e5 1f 0b 3e 25 c6 7e 3e 65 c7 87 3d
       -0.18470383 0.13586386 0.24880274 0.06629828
000380 8b 02 21 bf 6b fe dc 3e db 6e db be 13 44 9e 3e
       -0.62894505 0.43162856 -0.42858014 0.30911312
000390 fb 5f 7f bd 06 08 6b 3e 20 55 62 bf e8 a4 33 bf
       -0.062347393 0.2295228 -0.8841114 -0.701735
0003a0 4e 36 36 be 4e 16 2d 3b af c4 f7 bd 29 15 50 be
       -0.17794153 0.0026411 -0.12098061 -0.20320572
0003b0 c7 e7 76 bd db e0 f7 3e 90 07 7f bd 22 76 1c be
       -0.060279634 0.4841374 -0.06226307 -0.15279439
0003c0 55 bb 90 be 6e a0 2d bd 34 ae 60 3d a2 d4 c2 bd
       -0.28267923 -0.042389326 0.054853633 -0.09513213
0003d0 50 74 73 bd e9 20 00 bc c2 88 16 3d ca 7f 9b bd
       -0.059437096 -0.007820346 0.036751516 -0.07592733
0003e0 8e 5d ed be c6 4c 5b be 4a a7 d9 3e 24 15 bb 3e
       -0.4636044 -0.21416005 0.42510444 0.36539567
0003f0 f4 bc fc 3d 76 63 9a be ff ea 1c 3e 66 3d 73 bf
       0.123407274 -0.30154008 0.15324019 -0.9501556

2.bias f4 [100]
000000 a6 a8 60 3d e3 a4 6f bc 35 a7 b7 be 97 b0 10 be
       0.054848336 -0.014626714 -0.35869756 -0.14129864
000010 a2 41 1c be 50 ee 9f be 75 4d 7f bd 04 b6 2e 3b
       -0.15259412 -0.31236506 -0.06232973 0.0026658783
000020 c8 4d ad be a5 bb 3c be fb 1c 9f bd 38 77 30 be
       -0.33848405 -0.18430956 -0.077691995 -0.17232978
000030 98 87 bc be ca cf d0 bc 21 ec 27 3e eb 4e ef bd
       -0.368222 -0.025489707 0.1639867 -0.11684974
000040 38 0c 60 be 70 f4 5a be 39 77 ec bd 3f 1c 9b 3c
       -0.21879661 -0.21382308 -0.115461774 0.018934367
000050 63 d2 49 3e bd f6 8a be 83 6e 12 be 29 9d 2b be
       0.19709162 -0.2714137 -0.1429997 -0.1675917
000060 70 90 3a 3e 55 b1 07 bc 24 4e 26 3e 3d 1b 69 3e
       0.18219161 -0.008282025 0.16240746 0.22764297
000070 e1 66 39 be 34 45 c2 bd 39 58 99 be b5 08 87 be
       -0.18105651 -0.09485856 -0.2995012 -0.2637383
000080 81 f5 45 bd c5 97 0b be b6 5b a1 bd d4 85 b2 3d
       -0.048329834 -0.13632114 -0.078788206 0.08716932
000090 eb 97 4f be f8 19 2a 3e 51 1e 51 ba 0f fa f1 3c
       -0.20272796 0.16611469 -0.0007977235 0.029538183
0000a0 f4 7b 3b be 89 8d aa 3d 1c 39 51 bd fb 88 0f be
       -0.18309003 0.08327777 -0.051079854 -0.14017098
0000b0 8f 0f 83 3e 1f 56 21 be 65 93 83 3d 9b 77 b0 bd
       0.25597808 -0.15755509 0.06424598 -0.08616563
0000c0 3a 2e 66 bc 85 44 c6 3e 40 c8 23 be a1 b0 23 be
       -0.014049107 0.3872415 -0.15994358 -0.15985347
0000d0 1d c0 9d bd 85 e0 00 3f f8 34 7d be c6 ce 9c be
       -0.07702658 0.5034259 -0.24727237 -0.30626506
0000e0 0b 09 10 3d 7a 27 03 be 07 78 66 3e 79 5b ad be
       0.035164874 -0.12808028 0.22506724 -0.3385885
0000f0 64 f3 99 be 59 db 69 be 3a a8 07 3e 1a 8a d8 bc
       -0.30068505 -0.2283758 0.13247767 -0.02643304
000100 e4 10 f5 bd 05 f4 ff bd fd 09 0a 3f ee bb 80 be
       -0.11966112 -0.12497715 0.5392149 -0.2514338
000110 3f 8b 64 bd 6d 17 05 bd da 02 21 be 3f d6 43 be
       -0.055796858 -0.032493044 -0.15723744 -0.19124697
000120 9e 89 09 3f eb 13 d3 be ff df 06 be a4 ee 24 be
       0.5372561 -0.41226134 -0.13171385 -0.16106659
000130 00 ca 2c be bb 5b 09 be 2b b9 4a 3d ea 6d 4f bd
       -0.16873932 -0.13413899 0.049492996 -0.05064193
000140 00 4b de bd 2b 01 2b 3d b7 a2 18 be d0 9c d4 3c
       -0.10854149 0.04174916 -0.14905821 0.02595368
000150 5c 0f 82 3e 7c 5d 06 3e 4a 19 2d be f3 2d bd 3e
       0.25402343 0.13121599 -0.16904178 0.3694912
000160 0e 38 03 3f 5a 75 fa 3d 89 cb 60 be fe 19 36 bb
       0.5125741 0.12229414 -0.21952643 -0.0027786489
000170 09 95 dc bd 84 e4 91 bc fc 9e bb bd 14 63 94 3d
       -0.10770614 -0.01780916 -0.09161183 0.0724546
000180 61 07 58 3d 87 21 b7 bd 83 9c da 3d c8 af b6 3d
       0.052741412 -0.08941942 0.106743835 0.08920246

4.weight f4 [5, 100]
000000 36 2c 9b 3f fd 08 13 bf 74 e1 04 bf 8a fc ca 3d
       1.2122867 -0.5743559 -0.51906514 0.09911449
000010 51 eb 66 3f 92 8e bc be 32 81 7d 3f 11 d5 01 bd
       0.90202814 -0.36827523 0.9902526 -0.031697337
000020 c2 4a b9 bf 97 e2 22 3d 69 8b 1a 3f eb 09 96 bf
       -1.4475939 0.039766874 0.60368973 -1.1721777
000030 f1 e9 9a bf 5e 4e 63 bd cf 80 46 3f 46 4a cd 3c
       -1.2102643 -0.05549466 0.77540296 0.02505983
000040 f9 5d 86 3f 18 70 10 be af c8 35 be a4 75 d0 be
       1.0497428 -0.1410526 -0.17752336 -0.40714753
000050 a0 4e 2d 3e 25 08 6d 3f 51 0c 00 3d 36 6b 47 3d
       0.16924524 0.9259055 0.031261746 0.04868623
000060 fd 12 8a 3f 63 1c a9 3f 79 98 e0 3e 56 45 3a 3f
       1.0787045 1.3211788 0.43866327 0.7276205
000070 9a 82 98 3e 19 74 9d 3f 14 06 15 bf dc d6 86 3f
       0.2978714 1.2301055 -0.582124 1.053432
000080 8c a5 ef bd 1e df ed bd 13 ae cd 3d b1 da 88 3f
       -0.117014974 -0.11614822 0.10042968 1.0691739
000090 12 b0 87 bf e4 fe 16 3f 79 f7 b2 be 00 bc 91 3f
       -1.0600607 0.5898268 -0.34954432 1.1385498
0000a0 7e 2d 62 3f c9 bc 8a 3f 94 b2 4b bf d1 18 13 3f
       0.88350666 1.0838863 -0.79569364 0.5745974
0000b0 31 b4 90 3f ec fb c2 3e b1 6a 1a 3f ea 04 64 bf
       1.130499 0.38082826 0.6031905 -0.8907
0000c0 86 44 81 bf b5 9a c9 3d de 4b 62 3f da 70 1d 3f
       -1.0099037 0.09843961 0.88397014 0.6150032
0000d0 c7 41 17 3c 5a 85 05 3e 9c f3 1e 3f f4 a6 9d bf
       0.009231991 0.13039151 0.6209047 -1.2316575
0000e0 c4 bc 8e 3f 65 fc 67 bf 6a c0 e6 bc d2 23 5f 3f
       1.1151357 -0.906195 -0.028167922 0.8716403
0000f0 4a 41 a6 bf bc 68 6e bf bd d4 a3 3f a7 82 b8 3f
       -1.2988675 -0.9312856 1.2799298 1.4414872
000100 f0 bb 07 3c 82 bb a2 bc 47 c0 ac 3e cd c7 31 3f
       0.008284554 -0.019864801 0.33740446 0.69445497
000110 fd 65 ac bc 0f b3 44 3d 83 cd 87 3e 8a 60 32 bf
       -0.021044726 0.048022326 0.2652398 -0.69678557
000120 17 2a dd 3d 53 5b 56 bf ab 9b 25 3d c9 1d 59 bf
       0.107990436 -0.837331 0.04043166 -0.84811074
000130 38 b8 71 3c a3 46 88 3f 59 42 e6 3e 1d fb 77 3f
       0.014753394 1.0646557 0.44972494 0.96867543
000140 a5 96 a8 3d 3c 17 ec 3e e4 81 99 3c b0 a5 3a 3f
       0.08231858 0.46111476 0.018738694 0.7290907
000150 4c 77 1b 3f df 36 56 3f 82 78 7c 3f 78 8d 4d 3f
       0.6072891 0.83677477 0.9862138 0.8029399
000160 c6 e1 c4 3e 56 4c 98 3f b7 ec 69 3f f6 ad 7b bd
       0.384535 1.1898296 0.91376823 -0.0614452
000170 4f 80 47 bf 49 c0 a0 3f 56 0a bd 3d 38 e2 21 3f
       -0.7793016 1.2558681 0.09230487 0.6323581
000180 ef 26 fd 3e ec 85 89 bf c2 c5 75 3f 07 94 8f 3f
       0.49443766 -1.0743995 0.9600488 1.1217049
000190 48 51 69 3f cb 82 7d 3f e8 b0 e9 3e d5 e4 30 3d
       0.9113965 0.990277 0.4564278 0.04318698
0001a0 26 f7 9c bf 96 23 1a bf a8 ac 96 3f 93 da 90 bd
       -1.2262924 -0.6021055 1.177144 -0.0707294
0001b0 c8 5a 5c 3f eb 24 b0 3b 85 33 ae 3f fb 67 6c bf
       0.8607602 0.0053754947 1.3609473 -0.9234616
0001c0 20 0b 51 3f e5 da 6f 3f 20 aa 35 3f b8 7e 88 3c
       0.816576 0.9369338 0.70962715 0.016661987
0001d0 12 ae 59 3f cb aa 23 3e 3b 22 6d 3f 46 79 e1 be
       0.85031235 0.15983121 0.92630357 -0.44037837
0001e0 cf f3 23 3f 2f 0e 8a bf 1c 42 9c bc 31 19 da bf
       0.640439 -1.0785578 -0.019074492 -1.7038938
0001f0 0d 8f ae 3f 42 3a 8f 3f f7 0b 85 3f 20 1a 4b 3e
       1.3637406 1.1189654 1.0394276 0.19834185
000200 ad 9e 3c 3e 56 f8 07 bf 94 1e 40 bf f0 94 2d bf
       0.18419905 -0.53113306 -0.7504666 -0.67805386
000210 53 d4 d1 bb ba bd 02 3f ef da f6 3c d0 73 92 3f
       -0.006403485 0.5107075 0.030133693 1.1441593
000220 9c ac ae bf 49 5b 46 3e a1 ec 8b 3e ab 1c 11 3f
       -1.3646426 0.1937076 0.2732897 0.5668437
000230 32 41 7a 3f 6b b1 39 bf 02 17 77 3f 9f e2 56 3f
       0.9775573 -0.72536343 0.9651948 0.83939546
000240 37 52 a0 3f 8f aa 52 3e f2 82 23 bf 07 7f 15 bf
       1.252509 0.20572875 -0.6387168 -0.58396953
000250 18 5d 93 3f ce 81 fe bc 0c 37 a7 3f a6 38 2e be
       1.1512785 -0.031067755 1.3063674 -0.17013797
000260 0a 87 82 bf 30 e2 b4 3e 5e b0 ad bf 8b 57 8f be
       -1.0197461 0.35328817 -1.3569448 -0.27996477
000270 96 1d 6d 3f e5 15 82 bf 6a 5e c2 3c 44 c7 8a bf
       0.9262327 -1.0162932 0.02372666 -1.0842061
000280 67 2c 94 3f 90 ae 3b 3f 73 d9 49 3f 6b d7 4d 3f
       1.157605 0.73313236 0.78847426 0.80406827
000290 6f 87 37 bd c9 8d 8d 3c 46 8e c3 3e e7 14 35 bf
       -0.044806894 0.017279522 0.38194484 -0.7073502
0002a0 d3 77 6a 3d 7e cb 60 bc d6 64 c1 bd 1f 43 15 3f
       0.05724318 -0.013720391 -0.09443061 0.58305544
0002b0 05 e2 da 3e e9 08 e7 be 16 d0 9e 3d 2e 93 73 bf
       0.42750564 -0.45123985 0.07754533 -0.95146453
0002c0 59 99 5e bd 1a 44 ac 3f 4b e9 ac 3f dd 41 62 3f
       -0.054345462 1.3458283 1.3508695 0.8838175
0002d0 34 a2 26 3d 5e 4b 72 3f 54 9a a6 3c e5 c2 b3 be
       0.040682033 0.9464625 0.020337261 -0.3510963
0002e0 94 76 52 3f 5c a0 00 3f a5 eb 7b 3f 67 8c df 3e
       0.82212186 0.5024469 0.9840644 0.43661806
0002f0 ba 3d f1 3d bb 19 6e 3f 34 1d a9 bf 12 17 bc 3c
       0.117793515 0.9300801 -1.3212037 0.02296022
000300 14 2a b3 bf 68 b3 67 3f 00 96 46 be 31 a3 72 3f
       -1.3997216 0.9050813 -0.19393158 0.9478026
000310 ad 35 26 3f 2c 5b ff bb fe 5c 8b 3f 22 00 b1 be
       0.6492565 -0.007792851 1.0887754 -0.34570414
000320 31 ff 7c bf 38 6e 63 3f 68 93 ad 3e e8 99 06 bb
       -0.9882689 0.88840055 0.33901525 -0.0020538513
000330 22 ba 59 3f e0 76 2e 3f 54 64 55 bd a5 a6 3e bd
       0.8504964 0.6815014 -0.052097633 -0.046545643
000340 18 3a 96 bf 08 42 d3 3e ac 89 a3 3f 65 3b c1 bf
       -1.1736479 0.41261315 1.2776389 -1.5096251
000350 5c b2 93 3f bf 5e 6c 3f 12 04 1d be 3c f1 f4 3d
       1.1538806 0.9233207 -0.15333584 0.11960074
000360 b6 f6 6f 3f 83 d4 55 3e 08 cf 6a 3f 9d 3a 38 bf
       0.93735826 0.20881848 0.91722155 -0.71964437
000370 4f e5 91 3d 67 42 89 3f f6 06 76 3d f0 fa 77 bf
       0.07123815 1.0723389 0.060065232 -0.96867275
000380 25 9b 95 3f d5 5a 46 3f 17 67 62 3f e2 c4 24 3f
       1.1687971 0.7748235 0.8843855 0.6436292
000390 85 ee e4 3d 4e b2 7d 3f 51 86 91 bf c9 e5 85 3f
       0.111783065 0.99100196 -1.1369115 1.046075
0003a0 4c a3 2d 3d 9d 20 32 3e 86 ff 40 3d 96 d5 bd be
       0.04239206 0.17395253 0.047118686 -0.37077016
0003b0 54 04 6e bf 77 20 ae 3e 31 e7 97 3f f6 60 88 3f
       -0.92975354 0.34009144 1.1867429 1.065459
0003c0 9e 09 8d 3f 60 2f 9f 3f 3a 60 9c bf 65 bd 92 3f
       1.101856 1.2436333 -1.2216866 1.1464049
0003d0 77 ee b6 3f 00 21 ae be 10 c3 12 3f f3 f9 68 3f
       1.4291524 -0.34009552 0.5732889 0.9100639
0003e0 8a 4f 19 3d b1 59 25 3e 37 80 a5 3e ef 0e 8e 3e
       0.03742937 0.16147496 0.32324383 0.27745768
0003f0 b5 60 a8 bf a9 18 d1 3e 71 0b 91 3f 98 6f 69 3f
       -1.3154513 0.40839127 1.1331617 0.91185904

4.bias f4 [5]
000000 0d 09 00 3f 9d 11 c4 3e 66 94 7b 3e 0f ad 8c 3e
       0.5001381 0.38294688 0.24568328 0.27475783
000010 24 ba 5b 3e
       0.21457726
