models/DQN_simple/Q_gen_P_a_for_bcd.pth (torch_old, 112073 bytes, 6 tensors)

0.weight f4 [150, 80]
00000000: 45af dc3e 558a 02bf bcb3 26bf c201 37bf
00000010: d6b7 223e 6539 f33e e9f2 f93d 52ab 9abe
00000020: 6f83 c5be f877 b8be 871f 4a3f cf33 1ebf
00000030: 486c 5e3f cd25 57be 29c9 35bf a092 3b3f
00000040: eb36 603e b71a 853d 4e2e bdbe f6fb 59bf
00000050: 8c4d 2dbe cd79 67bd 282f 603f 03a6 d9be
00000060: 8d00 c5be 75a0 db3e f034 8dbe 808c 903e
00000070: f46b 0fbf 9eb5 a53d 8a60 d9bd af3b e13e
00000080: c03e 29bf 739f 8bbd b339 10bf 5c58 36bf
00000090: f770 903e a4ca 1dbf 0217 c6be 63dc 4abf
000000a0: 115c 34bf 34f5 753f f321 c3be 19b1 c93d
000000b0: 7f23 8a3d 1e5e 49bf 9afc 6c3e 0c3a de3e
000000c0: 9e81 84be 80fb 50bf 49e3 d0bc 7990 9e3e
000000d0: 8d68 1e3c b1e7 40bf a9f1 4fbe caf3 03bf
000000e0: 831d 1a3f e068 503e 9fc9 51bf ff3a 233e
000000f0: 004f 33bf fafc 4e3f c5ed 9abe 09ca cd3d
00000100: 702b f33e e1b7 b73e 3bef c2be ea10 48bf
00000110: 83fc 123e 224a 31bf 8c95 0cbf a531 0dbf
00000120: 385f 7fbe e642 28bf c8d8 17bd 0b81 bd3d
00000130: 3218 1abf 7610 fc3e 49ca 6bbf 1edc 5c3c
00000140: 8d71 41bf ff57 ca3d ebd7 c63e 6d2f 81bf
00000150: 92d9 03bf 5ec0 c33e 203d 283e 8f00 5fbe
00000160: 8c71 96bf 129e 13bf c877 953f d1c5 863f
00000170: 3b67 e5be 50b8 f4be 8a5a 3cbf cde3 c8bd
00000180: 032e 51be ae3b 14be d609 54bf c0d4 a23e
00000190: dff5 22bf feb7 5c3e 8cba c2be 9ac5 16bf
000001a0: 475b 16bf c5fb 61bf ba88 663e 925c c33e
000001b0: b6d8 4bbf f55a 0ebf 6dfe b33d 75d4 78be
000001c0: c799 083f db1c 40bf 66f9 763e 0a9e 36be
000001d0: 0251 dc3d 4e55 2c3e 6b64 59be e492 3dbf
000001e0: b70b fa3e c432 4dbf 4bbb b7be e901 67be
000001f0: 3064 a13e af76 6dbd b0ae 3f3e 3351 a33e
00000200: aa57 06bf f9b9 2cbf 0b50 993e 73e9 323f
00000210: 1198 30bf 891a c4bd cd7a b5be 7a55 bbbe
00000220: 325c 483f 2e5b 12bd a227 ecbe d55d 43bf
00000230: 36f8 ef3e 79a7 143f 8404 98be f572 493e
00000240: 3fc6 c8be 4225 5cbf 013b f0be f95d 25be
00000250: a085 20bf 084e e53e de52 50bf bc26 f3bd
00000260: 336c fd3e 2978 7fbf 68d1 28be 4aa4 da3e
00000270: cf08 1b3e 1f00 1ebe 239b 09bf f90e 5bbf
00000280: e535 0cbf ea72 2b3e 5d67 a8bc a38a 0fbf
00000290: af1d 3dbf 8b86 09bf 6b1b c03e 9392 a5be
000002a0: bb02 2fbf 72a0 103e ba4d 1abe 3367 08bf
000002b0: 84d7 edbe b443 07bf 4cae 2fbf 13ac 233e
000002c0: 1268 1fbf 828c 2bbf 4233 e7be a13d bbbe
000002d0: 12c5 f23e b61b 843e 3584 2ebe edfa 5ebf
000002e0: 1b51 48bf 0c1d 3b3f ccc0 8ebe a8c5 26bf
000002f0: 9a3b 18bf efcc 71be 3e45 1abf 3365 053e
00000300: dbf1 913e fdb0 16bf 8ec1 0b3e 2362 0fbf
00000310: 96ec 93bd 01d0 3e3e 73d9 3dbf d395 78be
00000320: a85a 8a3e 09a2 b53d e80b 713e 9c00 eabe
00000330: 86cb 00bf 8938 d6bd ff08 10be 8480 d7bd
00000340: 507c 44bf 6acf 15bf e544 d13e 345e 68bd
00000350: 1a43 48be 59df 49bf 0133 8cbe 8d3f 13be
00000360: 0ea8 e03e 8b66 31bf 1133 04bf 2811 76bb
00000370: 17f3 c2bd 7d06 a53e 0558 ff3e 0f9f bebe
00000380: 035a 4fbe b9a6 703e eb35 4abd f554 eebd
00000390: c43b aebe f8e5 27bf e67a dc3e e56c 19bd
000003a0: 34b7 9bbe 8209 2ebf 2718 64bf 44cf 0f3e
000003b0: 1ef7 5ebd 529a 383e 9613 97be 1760 5ebf
000003c0: d974 51bf 632d 73bf 2f89 03be e302 b9bd
000003d0: 8224 593f 6b5d 353f c450 303f 7e49 11be
000003e0: 2113 f33e 888b 94be 6a0e 583f b2b5 d8be
000003f0: f9c1 963e 24c0 053f ba9f f8be 334b 46bf
0.4310247 -0.5099233 -0.65118 -0.7148706 0.1589044 0.47504726 0.122045346 -0.30208832
-0.38576838 -0.3602903 0.78954357 -0.61797804 0.86883974 -0.21010514 -0.7101007 0.73270607
0.2189595 0.06499236 -0.3694939 -0.85150087 -0.16924113 -0.056512643 0.87571955 -0.4250947
-0.38476983 0.42895856 -0.2757945 0.28232193 -0.560241 0.08091281 -0.106141165 0.43990847
-0.66111374 -0.06817522 -0.5633804 -0.71228576 0.28211185 -0.6163733 -0.3868943 -0.79242533
-0.7045298 0.96077275 -0.3811184 0.09848232 0.067450516 -0.78659236 0.23143235 0.4340366
-0.2588014 -0.8163376 -0.025499003 0.309696 0.009668482 -0.75353533 -0.2030703 -0.5154387
0.6020128 0.20352507 -0.81948274 0.15940474 -0.7004242 0.8085476 -0.3025953 0.10048301
0.47494078 0.35882476 -0.38073143 -0.7815081 0.14354138 -0.6925374 -0.5491569 -0.55153877
-0.24938667 -0.6572708 -0.037071973 0.092531286 -0.6019317 0.4923131 -0.9210554 0.013480214
-0.7556389 0.09880065 0.38836607 -1.0092598 -0.5150386 0.38232702 0.16429567 -0.21777557
-1.1753402 -0.5766307 1.1677179 1.0529119 -0.4480532 -0.4779687 -0.7357565 -0.098090746
-0.20427708 -0.14475891 -0.8282751 0.3180294 -0.6365642 0.21554562 -0.3803295 -0.58895266
-0.5873303 -0.88274795 0.22513095 0.38156563 -0.7962755 -0.5560754 0.08788762 -0.24299796
0.53359646 -0.7504403 0.24118575 -0.17833725 0.107576385 0.16829416 -0.21229713 -0.7405226
0.48837063 -0.8015559 -0.3588508 -0.22559322 0.3152175 -0.057974514 0.18718982 0.31897888
-0.52477515 -0.6747127 0.2994388 0.69887465 -0.68982035 -0.09575374 -0.35445252 -0.3658865
0.7826568 -0.035731487 -0.46123987 -0.7631505 0.46869057 0.58068043 -0.29690945 0.19672759
-0.3921375 -0.8599435 -0.46920016 -0.16149129 -0.62703896 0.44786096 -0.81376445 -0.11872622
0.49496612 -0.99792725 -0.16486132 0.42703468 0.15140079 -0.15429734 -0.53752345 -0.8556972
-0.54769737 0.16743055 -0.0205571 -0.5607092 -0.7387342 -0.5372092 0.37520918 -0.3233839
-0.6836354 0.14123705 -0.15068713 -0.5328247 -0.46453488 -0.5283768 -0.6862533 0.1598361
-0.62268174 -0.6701127 -0.45156294 -0.36570457 0.47415978 0.25802392 -0.1704262 -0.8710163
-0.7824876 0.73091197 -0.27881467 -0.6514535 -0.59465945 -0.23613332 -0.60261905 0.13026886
0.28504834 -0.5886381 0.13648054 -0.5600912 -0.072228596 0.18634035 -0.74159926 -0.24275903
0.2702229 0.088687964 0.23539698 -0.4570359 -0.5031055 -0.10460002 -0.14065932 -0.10522559
-0.76752186 -0.58519614 0.40872875 -0.056730464 -0.19556847 -0.78856426 -0.27382663 -0.14379711
0.43878216 -0.69297093 -0.5164042 -0.0037546847 -0.09519022 0.32231513 0.4987184 -0.37230727
-0.2024918 0.235011 -0.049367826 -0.11637298 -0.34029973 -0.6558528 0.43062514 -0.037457366
-0.3041321 -0.6798326 -0.89099354 0.1404391 -0.054434888 0.18027619 -0.2950713 -0.8686537
-0.8181892 -0.9499113 -0.128453 -0.09033754 0.8482133 0.7084567 0.6887324 -0.14188191
0.47475532 -0.29012704 0.84396994 -0.42326123 0.29444864 0.5224631 -0.48559362 -0.77458495

0.bias f4 [150]
00000000: 6a95 91be e8f2 bcbb 9cfb 9dbc 72c0 29be
00000010: 42c0 83be 7fd8 e53c 9ed3 923e 6b3c a0be
00000020: 05e6 bb3e 830d afbd 76c1 8dbe b8fd 04bf
00000030: fe84 0ebf 1dba 1e3e c1d4 bcbe 16d2 40bd
00000040: 59e1 54be 8a05 eabe 81cf 8f3e bffc 05bf
00000050: 7213 d4be 39e7 19bf 340e 86be 8ed6 92be
00000060: d955 39bf d776 65be c14a 16bd 0973 a4be
00000070: a3e3 013e 2731 b8be 36da 95be b964 98be
00000080: ba70 813e cf0e b5bd b17f 303f 8b5b 84be
00000090: f33b 3cbf 5e6d 28be 4622 46bf 3830 cebd
000000a0: c268 c6be cca1 a2bc 1abd 60be b3d7 4abf
000000b0: 34bd 3bbd aa62 3e3e da9d 7bbe 9438 53bf
000000c0: 9374 e8be ce8e 6bbd b887 09be 9674 d3be
000000d0: 84a5 9bbe 6442 0cbd c6c3 aebe 661b 81be
000000e0: 23a9 24be 66f0 53bf bf1c f9bc ba77 76bf
000000f0: 3056 a53d 5cd6 39bd ddcb cdbe 66d9 29bf
00000100: c7c1 9b3d ab6f a8be 2fa8 2dbf 28bd 303d
00000110: 5b93 01bf 51ea 873d d241 fbbe 7f10 15bf
00000120: f151 c13d 00ce e0be 875d 03be e3c1 f0bc
00000130: b191 14bf 296b 703d c2d9 0f3e aee2 e23d
00000140: 105b 29bf 8569 14bf 0d4a efbd 2f80 77bf
00000150: 1806 8bbe 057f d4be a711 18be 9d36 2fbe
00000160: e544 a1be 5317 f4be 03de 813e d192 6d3e
00000170: 7b66 efbc 199a 9e3e c724 23bf dd5c 8fbc
00000180: 09e2 27bf 8ef2 4fbf c3f8 30be 7972 d3be
00000190: 8921 5abe d2f0 a0bd fbf2 43bc e34b 62be
000001a0: c1e5 08bf 405a 813d 2d49 d73d 35f2 1cbf
000001b0: 22cb 47be 020c c33d 9281 39bf 3cbe a5be
000001c0: 753e 9a3d 7e25 bfbd fe51 85bf 6c3d 563e
000001d0: e021 58bf 1145 803c 9b87 503e 685a bb3e
000001e0: 6ce9 e8be 4dc2 cd3c b020 90be e052 2dbf
000001f0: fe10 89be 1c48 973d 6674 83be e355 82bc
00000200: 851d 4d3c f64f bd3c 14a0 f7be 6014 08bf
00000210: b4ef debd b98b 80be 049e d8be 7802 16bf
00000220: 99e9 973a f6d7 a53d 3199 debe bfea 883e
00000230: 01d1 313e 9615 eabe 1b01 b6bd 4414 24bf
00000240: 488f 19be 2b4b 95bf a7b1 27bf c210 17bd
00000250: 32d3 6bbe 4249 99be
-0.28434306 -0.0057662614 -0.019285016 -0.16577318 -0.2573262 0.028057335 0.28677076 -0.31296095
0.36698928 -0.08547499 -0.2768666 -0.51949644 -0.5567168 0.15500684 -0.36881068 -0.047075354
-0.20789088 -0.4570735 0.28088 -0.52338785 -0.41421086 -0.6011844 -0.2618271 -0.28679317
-0.7239662 -0.22408615 -0.036692385 -0.32119015 0.12684493 -0.35975 -0.29268044 -0.29764345
0.25281316 -0.08840715 0.6894484 -0.25851092 -0.73528975 -0.1644797 -0.7739605 -0.10067791
-0.387518 -0.019852541 -0.21947137 -0.7923538 -0.045834735 0.18592325 -0.24571934 -0.82508206
-0.4540144 -0.057509236 -0.13430679 -0.41299886 -0.30399716 -0.034243003 -0.34133738 -0.25216216
-0.16080146 -0.82788694 -0.030409215 -0.9627644 0.080730796 -0.045370445 -0.40194598 -0.6634735
0.076053195 -0.32897696 -0.6783475 0.043149143 -0.5061547 0.06636489 -0.49073654 -0.58228296
0.09439457 -0.43907166 -0.12828647 -0.029389327 -0.5803481 0.058695946 0.14047912 0.11078392
-0.66154575 -0.5797351 -0.11684046 -0.9667997 -0.27153087 -0.41503158 -0.14850484 -0.17110677
-0.31497875 -0.47674045 0.25364694 0.23200537 -0.029223671 0.30976942 -0.6372799 -0.017500335
-0.6557928 -0.81229484 -0.17282395 -0.41298273 -0.21301855 -0.07858433 -0.0119597865 -0.22099261
-0.53475577 0.06316042 0.10512004 -0.6130708 -0.19511083 0.09523775 -0.72463334 -0.323717
0.07531444 -0.09333323 -1.0415647 0.20921868 -0.8442669 0.015657933 0.2036423 0.36592412
-0.45490587 0.025117064 -0.2814994 -0.6770458 -0.26770777 0.07386801 -0.25674742 -0.015910095
0.012519245 0.023109417 -0.48364317 -0.5315609 -0.108855635 -0.251066 -0.42308056 -0.58597517
0.0011590003 0.08097832 -0.4347625 0.26741597 0.17364885 -0.45719594 -0.088869296 -0.6409342
-0.14996064 -1.1663564 -0.6550545 -0.036881216 -0.23029783 -0.29938704

2.weight f4 [100, 150]
00000000: bbe5 af3e 6fb6 863e 999a 1dbe 79a6 a5be
00000010: 6f69 013e 9fd9 03bd 9a64 d0be 5255 f03d
00000020: d747 a7bd 9bf8 093e 64d5 883d 2360 3cbe
00000030: c53c fd3d e49e 11bf 0f66 34be 83cd 1cbe
00000040: 8e24 fcbe f2a2 a0be 609d 0abe 615c 0fbf
00000050: 0465 14be 41c5 05bd 1b98 dcbd 7a8a b73d
00000060: fc4b 1bbf 4808 05bf aa95 c6be 1afb 00bf
00000070: e1b1 0dbf 3e95 e7be 7437 80bc 2001 95be
00000080: a6b3 333d d9e4 fc3a 1ca6 cfbe 7fd0 23bf
00000090: b519 39bf ffed ab3b 52c9 093c ca14 d2bc
000000a0: 0223 e63e 25f5 063f 254a c9be 2db4 96bd
000000b0: b93d cb3b 8b1e 843d 723d 3cbe b1b8 cc3d
000000c0: 2901 ecbc 2f17 32be 7685 8f3d 2195 15bc
000000d0: f9d3 60be 9ac1 83be e483 a4be ae79 8bbe
000000e0: ff7e cabd 9dd1 933e e2db 7abe 978f b4be
000000f0: 5be6 53bb 0a06 b03d 8dc8 84be 508d 7fbd
00000100: a74f 26be 6223 043d daf5 7cbe a341 fabc
00000110: 8ad7 0abe 5fd6 89be 161e 7b3d 7cc5 babe
00000120: 4da3 5abf 19c1 79be 4030 26be 97ca 5fbe
00000130: 673c f03d 0b8b d2be 74e3 f13d 9884 4fbe
00000140: c30b 81be 6d33 40be ab41 f23d ed72 bebe
00000150: d3ff 8ebe b21f 65be a1a0 553e 8923 39be
00000160: 4576 0cbf e2af 0f3e fd6a 543d fa73 d5bd
00000170: 7c36 2ebe 7c33 48bd bd7a 423d 5c17 14be
00000180: 33b9 0cbf b494 f33c b0ef a6be 1c0c 023f
00000190: 4d02 f4bd d457 cdbe ba78 51be f94a 27be
000001a0: 77e0 ca3c 9171 02be 6057 3cbe 5223 b4bd
000001b0: 5d49 de3c 7cbf 5abf dfb2 40be 9eb2 303e
000001c0: bb75 fe3e c8d0 d9be d0ce 05bf 7936 2dbe
000001d0: 142d d8bd 7841 4b3e ba5d 0ebd 741f 9bbd
000001e0: e724 443e 2451 14bc 4cd8 b23e 9b55 73be
000001f0: b0c9 9ebd 6284 363e b976 443e 1bc7 bcbe
00000200: 49f7 fa3b 7b1b 1f3d b5b7 3cbe c22e 27bf
00000210: b3c2 3b3d 319e 94be 1bfa 18be ce82 0fbf
00000220: e582 b0be 2a49 febd feaf 95bd c495 61be
00000230: f39a 85be 28ce 2a3d 52c5 c1be 720e c6be
00000240: 928a 64bf 081c abbe 93be dabe c838 1b3e
00000250: 02c8 19bf 449c b8bc 9131 2cbe 08a4 223e
00000260: ebe0 10be c2eb cebd f136 833e 6f30 0bbd
00000270: f566 08bd 0851 cc3d 5c1b b63d 2dfa d73b
00000280: 291d 93bd 7974 4cbd b675 bd3e 4aea d13c
00000290: 4e71 7ebe 449a 31be bfe2 05bd 5914 853e
000002a0: 1ca9 93be a0df cbbe e744 e2bd d3a9 95bd
000002b0: 8b92 95be 25a0 49be 939e 3bbe 7238 8bbe
000002c0: 06cc 94be 33cb 4ebe 0987 9b3c 67e9 30be
000002d0: bc02 66be 689f c3be 8e95 86bd 8431 d2bd
000002e0: 2c85 05be bb02 3cbe 6afe 74be 754e 35be
000002f0: b833 84bd 8d7c b8bd ce4e 95bd c4c5 f5bc
00000300: 5cb2 59be d731 5dbe cf81 c3bd be71 4cbe
00000310: 127f 5dbe ef6f 4b3e e8f0 abbd 6c6a d33d
00000320: c0ae 4dbd 6ba7 5abd dc07 733e 0bf2 cebd
00000330: cf84 813e 4e26 aabe 81a8 3cbe f17e 3fbd
00000340: 71d6 10be 2983 dbbe 746c 58be a1d1 e9bd
00000350: 0331 a23d f170 84be 264a 44be 4198 f9bd
00000360: 658d 1ebc 5d63 0bbe 3f26 26be 0a3c 23be
00000370: a50e f93c 2a6c 33be 4954 b4be 6585 edbe
00000380: 4743 abbd 7bad 11bd 3f82 30be 5ff5 80bc
00000390: d9a7 20be 142b 4abe a132 19be 0083 23be
000003a0: c079 f6bd 421a 5dbe 126e 89bb db96 53be
000003b0: c7bc 82bd 2b0e d1be 1522 c7bd 7466 b4bd
000003c0: ad53 15be 7595 78be c2b5 0ebe b241 473e
000003d0: 3fbc 88bd 7d9a 44be 6393 3ebe 767d 0fbe
000003e0: 54d8 a8bd e4cd 4c3c fa6a 6c3d 51a6 03be
000003f0: 83b0 91be ebe9 f33c c147 97bd c520 13be
0.34354958 0.2631106 -0.15391006 -0.3235357 0.12637876 -0.03218996 -0.40701753 0.117350236
-0.08167999 0.13473742 0.06681326 -0.18396048 0.123651065 -0.5688307 -0.17617057 -0.15312771
-0.4924664 -0.31374317 -0.13536596 -0.56000334 -0.1449166 -0.03265882 -0.10771199 0.08961959
-0.6066282 -0.5196576 -0.3878606 -0.5038315 -0.55349547 -0.4523105 -0.015651442 -0.2910242
0.043872498 0.0019294276 -0.4055642 -0.63990015 -0.7230485 0.005246877 0.008409815 -0.025644679
0.44948584 0.5271781 -0.3931438 -0.073585846 0.0062024263 0.06451138 -0.18382815 0.099961646
-0.028809147 -0.17391656 0.070078775 -0.009129793 -0.21955861 -0.25733644 -0.32131875 -0.27241272
-0.09887504 0.2887086 -0.24497941 -0.352658 -0.0032333347 0.08594902 -0.25934258 -0.062390625
-0.16241322 0.032260306 -0.2470316 -0.030548876 -0.13558784 -0.26921365 0.06130799 -0.36478794
-0.8540543 -0.24390067 -0.16229343 -0.21854626 0.11730271 -0.41121706 0.11810961 -0.20265424
-0.25204286 -0.18769617 0.118289314 -0.37197056 -0.27929553 -0.22375372 0.20862056 -0.18079962
-0.54867965 0.14031938 0.051859844 -0.104225114 -0.17012972 -0.048877224 0.047480334 -0.14462036
-0.5497009 0.029733993 -0.32604742 0.5079973 -0.11914501 -0.4010607 -0.2045621 -0.16337194
0.024765236 -0.12738635 -0.18392706 -0.08795799 0.027134592 -0.8544843 -0.18818234 0.17255637
0.49699196 -0.425421 -0.52268696 -0.16915311 -0.10555473 0.19849193 -0.034757353 -0.075743586
0.19154702 -0.009052549 0.34930646 -0.23763125 -0.077533126 0.17823938 0.19185914 -0.36870655
0.007658873 0.038844567 -0.18429454 -0.6530572 0.045839977 -0.2902694 -0.14939158 -0.5605897
-0.34474865 -0.12416299 -0.073089585 -0.22029787 -0.2609478 0.041700512 -0.37845856 -0.38682896
-0.8927394 -0.33419824 -0.42723522 0.15158379 -0.6007081 -0.02253545 -0.16815783 0.15882885
-0.141483 -0.10103561 0.25627854 -0.033981737 -0.033301312 0.09976393 0.08891937 0.0065911026
-0.07183296 -0.049915764 0.3700387 0.025624413 -0.2484791 -0.17344004 -0.032686945 0.25992087
-0.28839958 -0.3981905 -0.11048298 -0.07307782 -0.29213366 -0.19689997 -0.1832221 -0.27191502
-0.29061908 -0.20194702 0.018985288 -0.17276536 -0.2246198 -0.38207555 -0.06571494 -0.102633506
-0.13039082 -0.18360417 -0.23925176 -0.1770571 -0.06455177 -0.09008131 -0.072904214 -0.030001529
-0.21259445 -0.21601044 -0.095462434 -0.19965264 -0.21630505 0.19866918 -0.083955586 0.10323033
-0.050215483 -0.05338232 0.23733467 -0.1010476 0.25296637 -0.3323235 -0.18423654 -0.04675192
-0.14144303 -0.42873505 -0.21135122 -0.11416937 0.079195045 -0.25867417 -0.1916891 -0.12187243
-0.009677266 -0.13612123 -0.16225527 -0.15940872 0.03040249 -0.1752173 -0.35220554 -0.46390834
-0.083624415 -0.035565834 -0.17237185 -0.015742002 -0.15689029 -0.19742996 -0.1496072 -0.15967941
-0.12034941 -0.21592048 -0.0041940296 -0.20663016 -0.06383663 -0.40831122 -0.097232975 -0.08808604
-0.14582701 -0.24275763 -0.13936523 0.19458655 -0.0667653 -0.19199558 -0.18610911 -0.14012703
-0.08244386 0.01250026 0.05771921 -0.12856413 -0.2845498 0.029774627 -0.07386733 -0.1436797

2.bias f4 [100]
00000000: cbe8 aebc 49cc 04be 28ad 1bbe e81d ae3d
00000010: f05f bdbd 47a5 71be 9b66 86be bf8d c7bd
00000020: 2b80 a0be b8ee 0ebe 2cd1 61be 78da aabd
00000030: d037 0bbe 3d52 2ebd 3f44 d2bd 51b9 17bd
00000040: c89d 33be 99cf 05be 8a5c 4cbe 4be8 d8bd
00000050: 04e8 763c f15f 53bb 170f 89be 3927 56be
00000060: f98b 02be 17ac 18be 3a1c 9bbc 3029 44bd
00000070: 2660 c9be 2e5e 21be e5df f33d 255f cdbd
00000080: 230a 54be 3264 2cbe 6390 bfbd 4ab3 cebd
00000090: 5dea 54be c643 56be 89e8 4fbe a4c7 50be
000000a0: fe3b 043f 5c87 dcbd 2a9c 97be ea09 b2bd
000000b0: 5cc1 c0bd 53cb 47be 7bde 5dbe 4a0a 31bd
000000c0: 3edb 95bd efb3 93be 71a8 0bbe 6e52 56be
000000d0: 783a 1abe 5357 bebd b1d7 91be 99f7 70be
000000e0: 12b8 58be cf1a 9fbe d777 89bb 9be9 b1bd
000000f0: a455 b2bd 60b6 efbd 2ff1 70be 96c4 68be
00000100: 140d 25bd 23e0 cdbd 1bf0 84bd 48f8 c43e
00000110: 19ce 64be 52a5 66be f7e5 c53e 3918 ecbd
00000120: 2875 02be e673 2cbe 653a 27bd 4a6e abbe
00000130: 864a 7ebe 3609 29be ca62 a9be 6fa4 413e
00000140: 9ce1 e2bd a87c 78be 0827 bebe 3250 a7bd
00000150: 1a77 d0be 737c 38be 2439 5fbe 44a7 ab3d
00000160: ad5d cebd 78b5 bdbd d755 8bb9 c28c 9ebe
00000170: 90d6 c4be f36b 92be de24 d9bd 4ff0 7ebe
00000180: e5ac 4ebe 1b8c 2abe 3f65 81be 6a3e 03be
-0.021351239 -0.12968554 -0.15202773 0.08501798 -0.09246814 -0.23598205 -0.26250157 -0.09743833
-0.31347784 -0.13958251 -0.22052449 -0.08342451 -0.1359551 -0.042558897 -0.10266923 -0.037041966
-0.17540658 -0.13067473 -0.19957176 -0.10591181 0.015069965 -0.003225323 -0.26769325 -0.209134
-0.12748708 -0.14909397 -0.018934358 -0.047890842 -0.39331168 -0.15758583 0.11907939 -0.10027913
-0.20706992 -0.16835096 -0.093537115 -0.100927904 -0.20792527 -0.20924291 -0.20303549 -0.20388657
0.5165404 -0.10768005 -0.2961133 -0.08693297 -0.094118804 -0.19511156 -0.21666901 -0.043222703
-0.07317208 -0.28848216 -0.13638474 -0.20929882 -0.15061367 -0.092939995 -0.28484872 -0.23531951
-0.21163967 -0.3107514 -0.004195194 -0.08687135 -0.08707741 -0.11704707 -0.23529504 -0.22731242
-0.040295675 -0.10052516 -0.06491109 0.38470674 -0.22344245 -0.22524002 0.38652012 -0.115280576
-0.12740004 -0.16841087 -0.040827174 -0.3348258 -0.24833116 -0.1650742 -0.33083183 0.18910383
-0.11078188 -0.24266303 -0.37139153 -0.08169593 -0.40715867 -0.18016224 -0.21799141 0.08381513
-0.10076461 -0.09263128 -0.00026576102 -0.30966765 -0.38444948 -0.28597984 -0.10602735 -0.24896358
-0.20183142 -0.16655008 -0.25272557 -0.12816778

4.weight f4 [5, 100]
00000000: 07e8 68bd cfcf a8bd 6a24 f6ba 1d44 693e
00000010: 5350 73bc d660 063e 0d5d 8abe 9d06 17bf
00000020: 535f fcbd 4acd e3bd 1a96 1c3e 3fcc 483e
00000030: 6753 b5bc b6d9 4f3e 7ddc f63d 751c e33d
00000040: b4d2 93bc f410 9abd 82ba 213e 0fe2 f2be
00000050: 6da5 a23e 0ea7 383e d525 1fbf 80a9 3c3e
00000060: ccbe ab3d 9175 bcbc 8bfb aabd 9c0f 3fbe
00000070: 7aa6 c33e 4cdd acbe 11e3 b23d c889 bdbc
00000080: 53b3 2abd 1620 aabd 1f2e 813b 6e10 073e
00000090: 9695 c03d ec1c 89bd 185b 793e 0a05 ae3e
000000a0: e591 b33e 0fbc 18bd b7a6 c33d 1263 65be
000000b0: b61c 963d b885 bb3d 1bd3 a2be 7803 163e
000000c0: c5c0 cb3e 2189 7bbe 735d 06bc e690 7dbe
000000d0: dcac 0ebd 7ff0 a13d f9c8 26bf d495 93be
000000e0: 01b4 fb3c a45d bb3e 808a 873d dab7 4bbe
000000f0: e03a 60bc 3bb5 903d e8bd 943c 858d 333e
00000100: 5696 8f3e 8501 103e b6e9 4cbe 04c9 8a3e
00000110: 6341 f8bc 26af 003d c9cd 93bb dab1 9cbd
00000120: 615d 18be d93a 5dbd bc23 32bd b1fd a13d
00000130: 3259 61be fb19 8dbe 097d 8abe 2bcb b93d
00000140: 4eed a0bd 9165 dc3e 7470 ecbd 8aff 3dbe
00000150: 1844 07be 0a9e 8d3e b03f e43e 166a 063f
00000160: 3171 1e3b 29e9 79be edcc 9c3e 48c6 c13e
00000170: f866 933e f3a3 19bd a76f 923e 417b 8dbe
00000180: 0288 183e c986 99bd af97 ba3e ac0a b63d
00000190: c2a2 c73c d4c6 2abc dc0e 483e 2e9b 0d3f
000001a0: 2d63 46bd bc1c ea3e 83ec 01bd e3ec 8a3e
000001b0: 360e cdbd 2c62 acbd 2321 d7bc 6776 dfbd
000001c0: 3b97 76bd ce34 b03d 7c94 a1bc 0b3e 86bc
000001d0: 0633 21bf 9415 6f3e 22bc db3e 9eff 0dbe
000001e0: 557b 54be 7a27 d83e 49d7 f7bd 20f1 a53d
000001f0: 2baf dd3d d040 c43b e550 a23e ab12 313d
00000200: 8299 483d 25c6 e3be 0905 8bbd c191 d03c
00000210: 75e5 803e c67c 683d c5a3 8d3e 4d02 033e
00000220: bb60 4abe 447d c2bd c7f2 75be 9c9b 3f3e
00000230: 7dba 1ebd 2dca e8bb cd44 35be 04d0 c0be
00000240: b064 543e 49c0 fe3d 8516 fb3d e426 f13d
00000250: ba1d 1ebf ba6c 33bc 99af 12bd e032 50be
00000260: 1d6e 71bd 0d7a 4e3b f499 c03e 0f56 3a3e
00000270: a9ec 51bd d6fb 96be c3d8 393e 7ff9 4f3e
00000280: 3ce4 67bd c000 e6bc c567 2cbe e590 ac3e
00000290: 7d7f c3bd 1a8d 1c3e 7294 913d fbcd 623e
000002a0: 0c8e 90be 7684 983e 909a 933e 5a06 ca3d
000002b0: ab46 ddbb 72fd 9e3d 7c29 c2be c698 afbe
000002c0: ac61 4ebc d816 6b3d 62f9 043e 45ae 9d3e
000002d0: 0cdd 03be 75f0 8dbe 2ef1 73be e847 603e
000002e0: 074e 133e d3b9 843c 406a 863e 39f3 9bbd
000002f0: 3496 b4bc 833f 60be ee1b 8dbe 27e7 25be
00000300: 8736 22be cd63 5e3e 03f8 773e 6e40 fc3d
00000310: 82f8 43be 1443 36bd 5a9e c0be 0cb7 0f3e
00000320: 5545 443d 1955 95be 2574 87bd 3396 c1bd
00000330: 1e93 05bf f59c c3be 2d34 143e 0cd6 2a3e
00000340: c850 c13d 4a6a 0e3c 500b 6fbd 72f3 be3e
00000350: 5771 cbbc 4317 5d3d 57de 24be 5eb3 24bf
00000360: 1e8b 8abc 7dd6 94be 10fe dcbe 5d46 a63e
00000370: 9e6e 163e 31af 8bbe 6565 723d cfac 9a3c
00000380: 8c6c 07be 53a0 fe3b b197 ad3d 1085 203e
00000390: c853 c2be f9e1 cf3e ad36 ff3d 3ee6 f8bc
000003a0: 5981 17be 29d2 873d 3522 00be a862 25be
000003b0: eeb7 873e aa87 cebd 6aca 40bf 0bf0 a4be
000003c0: f6c5 a03d 2294 543c b986 99be 7665 b53e
000003d0: c7b6 e9bd 9a99 8cbd b49a ad3e 2152 abbd
000003e0: 07e1 493e f1e1 91be 827b 653d 6a72 033e
000003f0: 47e4 b0bd cf04 61bd 385b 223f 2a53 96be
-0.056861904 -0.08242761 -0.0018779163 0.2277989 -0.014850694 0.13122877 -0.27024117 -0.58994466
-0.12322869 -0.1112314 0.15291634 0.19609164 -0.022134496 0.20297894 0.120537736 0.11089412
-0.018044807 -0.07522765 0.15793803 -0.47438094 0.31766835 0.18032476 -0.621671 0.18424034
0.08386001 -0.023005279 -0.08348759 -0.18658298 0.3821295 -0.33762586 0.08734716 -0.023136988
-0.041674923 -0.08306901 0.0039422656 0.13189861 0.09403531 -0.066949695 0.24351156 0.3398822
0.35072246 -0.03728872 0.09553283 -0.22401074 0.07329695 0.09156364 -0.31801686 0.1464976
0.3979551 -0.2456403 -0.008200991 -0.24762306 -0.03483282 0.07907199 -0.6515041 -0.28825247
0.030725481 0.3659488 0.06618214 -0.19894353 -0.013685912 0.07065817 0.01815696 0.17534454
0.28044385 0.1406308 -0.20011029 0.27106488 -0.030304616 0.031417035 -0.0045106155 -0.0765111
-0.14879371 -0.0540112 -0.04349111 0.07909716 -0.22006682 -0.27558884 -0.2704852 0.09071954
-0.07857762 0.4304624 -0.11544886 -0.18554512 -0.1320957 0.27659637 0.4457984 0.52505624
0.0024176354 -0.2440535 0.30625096 0.3784659 0.28789496 -0.03750987 0.2860081 -0.27633098
0.14895633 -0.07496411 0.3644385 0.08888754 0.024369601 -0.010423381 0.19536918 0.5531491
-0.048434425 0.45725048 -0.031719696 0.27133855 -0.10012476 -0.08417162 -0.026260918 -0.10911255
-0.06020282 0.08603822 -0.019724123 -0.016387006 -0.6296848 0.23348075 0.4291697 -0.13867041
-0.20750172 0.42217618 -0.12101609 0.081026316 0.10824426 0.0059891716 0.31702343 0.043230694
0.04897452 -0.4448711 -0.0678807 0.025460126 0.25175062 0.05675962 0.2766401 0.12793846
-0.19763462 -0.09496549 -0.24018393 0.18711704 -0.038752068 -0.0071041794 -0.17702027 -0.37658703
0.20741534 0.12439019 0.12260155 0.11774996 -0.6176411 -0.010951215 -0.035811994 -0.20331907
-0.058942903 0.0031505853 0.37617457 0.18196891 -0.051251087 -0.2948901 0.18149094 0.20310019
-0.056614146 -0.02807653 -0.1683646 0.33704296 -0.09545801 0.15288201 0.07108392 0.22148888
-0.28233373 0.2978856 0.2882886 0.09864493 -0.006752809 0.077631846 -0.37922275 -0.34296244
-0.012596529 0.057394832 0.12985757 0.3079702 -0.12877291 -0.27722517 -0.23822471 0.2190243
0.14385234 0.01620189 0.26252937 -0.076147504 -0.022044279 -0.21899228 -0.2756037 -0.16201459
-0.15841113 0.21717758 0.24215703 0.123169765 -0.19137767 -0.044497564 -0.37620813 0.1403467
0.047917683 -0.29166487 -0.0661395 -0.09452476 -0.5217761 -0.38205686 0.14473028 0.16683215
0.09439236 0.0086923335 -0.058360398 0.3729511 -0.024834318 0.053977262 -0.16100441 -0.6433619
-0.01691204 -0.29069892 -0.43162584 0.32475558 0.14690635 -0.27282098 0.05917873 0.01888123
-0.13225001 0.007770577 0.084761985 0.1567576 -0.37954545 0.4060209 0.124616005 -0.030383226
-0.14795436 0.06631882 -0.12513049 -0.16150916 0.26507515 -0.100844696 -0.7530886 -0.32214388
0.07850258 0.012974771 -0.29985598 0.3542897 -0.11411815 -0.06865235 0.33907092 -0.08365274
0.19714747 -0.28492692 0.05602599 0.12836614 -0.086372904 -0.054936226 0.6342044 -0.29360324

4.bias f4 [5]
00000000: ad30 ae3e e69f 1d3f 043e d13e 5aa2 943e
00000010: 0fc3 b53e
0.34021512 0.6157211 0.40867627 0.29030114 0.3550038
